Lab-Ex/ML2022-09-Deep learning II/3.model.pth (torch, 425935 bytes, 8 tensors)

conv1.weight f4 [10, 1, 5, 5]
0	0xbdbdd105	-0.09268383
1	0xbe7ac93a	-0.24490824
2	0x3d2274c7	0.03966215
3	0xbe207a15	-0.1567157
4	0x3d7e09a4	0.062020913
5	0x3d9dc296	0.0770313
6	0xbd450bde	-0.04810702
7	0x3d91be48	0.071163714
8	0x3c3b3c9d	0.011428026
9	0xbd65b80e	-0.05608373
10	0x3e728024	0.23681694
11	0x3d97f01f	0.07418846
12	0x3e02b0f0	0.12762809
13	0x3ed6ad51	0.41929105
14	0x3eba6e11	0.364121
15	0x3d86e1f0	0.06586063
16	0x3d18a536	0.037266932
17	0x3ea69ef7	0.32543156
18	0x3ea5d74f	0.3239083
19	0x3ecf570a	0.40496093
20	0x3ca3c303	0.01999045
21	0x3e5dd2ad	0.21662398
22	0x3dfd4013	0.12365737
23	0x3eb06a8c	0.3445629
24	0x3e062d2b	0.13103168
25	0x3e653762	0.22384408
26	0x3e3ffa18	0.18747747
27	0x3e2bb8c7	0.16769706
28	0x3d56de64	0.052458182
29	0x3e54f40c	0.20796221
30	0x3cc56fc2	0.024101142
31	0xbe02baf1	-0.12766625
32	0x3de267c8	0.11054951
33	0x3e267959	0.16257228
34	0xbdc64fbb	-0.09683176
35	0xbdf17354	-0.11789575
36	0xbdb3313c	-0.08749625
37	0xbe572ac0	-0.21012402
38	0xbdffee81	-0.12496663
39	0xbe61abec	-0.22038239
40	0xbe5d5b20	-0.21616793
41	0xbe0d4d81	-0.13799097
42	0xbe34865c	-0.17629379
43	0xbe69b238	-0.22821891
44	0xbb31eebf	-0.002715036
45	0xbd65102b	-0.055923622
46	0xbdc7cfab	-0.097564064
47	0x3dd6e03b	0.10491987
48	0xbd1295c6	-0.035787366
49	0xbd2fbaec	-0.042902872
50	0x3c088e56	0.008334717
51	0x3e3296e3	0.17440371
52	0x3eaa829e	0.33302778
53	0x3e87ee8d	0.26549187
54	0x3e822a12	0.25422722
55	0x3ea4f11e	0.32215208
56	0x3ed5ad84	0.41733944
57	0x3f3cfb68	0.73821115
58	0x3ef77061	0.48327926
59	0xbcf7bb01	-0.030240538
60	0x3f040761	0.5157376
61	0x3f228373	0.63481826
62	0x3f1609f5	0.58608943
63	0x3eb88f52	0.36046845
64	0x3c61c035	0.013778736
65	0x3e00fd07	0.12596522
66	0x3eb4c33b	0.353052
67	0x3be7c28a	0.0070727514
68	0xbe03a34d	-0.12855263
69	0xbe0adbab	-0.13560359
70	0xbd1452c8	-0.03621176
71	0x3d85b4aa	0.065285996
72	0x3c70b1e1	0.014690847
73	0xbe3dd0b8	-0.18536651
74	0xbd8a7a87	-0.067616515
75	0xbe116a44	-0.14200693
76	0xbc1e72df	-0.009670942
77	0x3e3c5cfc	0.18394846
78	0xbe064e98	-0.13115919
79	0xbdca06d3	-0.09864583
80	0x3da44c58	0.08022374
81	0xbd1bd313	-0.038043093
82	0xbe438374	-0.19093114
83	0x3e0fefa2	0.14056256
84	0x3ddb10cc	0.10696563
85	0xbd457f15	-0.048216898
86	0xbe3720a5	-0.17883547
87	0x3dcdd349	0.10050065
88	0x3e0496aa	0.12948099
89	0x3cfbd03e	0.030738946
90	0x3e2820f2	0.16418818
91	0xbe43ed0e	-0.19133398
92	0xbd3547ee	-0.04425805
93	0xbe432939	-0.19058694
94	0x3ca35766	0.019939136
95	0x3d8b62a7	0.06805926
96	0xbe18b9a5	-0.14914568
97	0xbd13d479	-0.0360913
98	0xbd67566b	-0.0564789
99	0xbe3a3bca	-0.1818687
100	0xbd68d5e8	-0.056844622
101	0x3e839d0e	0.2570576
102	0x3d7e6fff	0.062118527
103	0x3e253354	0.16132861
104	0x3e2fe426	0.17176875
105	0xbe01d9e0	-0.12680769
106	0xbe605aab	-0.21909587
107	0x3d8a3f4e	0.06750356
108	0xbe51bd88	-0.20482457
109	0xbe38155e	-0.17976901
110	0xbd30f974	-0.043206647
111	0xbe34263c	-0.1759271
112	0xbe96540f	-0.29361007
113	0xbda952ad	-0.08267722
114	0xbdefe8e8	-0.11714345
115	0xbde0a30f	-0.10968601
116	0x3de93c62	0.1138847
117	0x3d90a564	0.07062796
118	0xbdfc65ca	-0.12324102
119	0x3d8a8177	0.06762975
120	0x3e14549b	0.144854
121	0x3e50583e	0.20346162
122	0x3d552be5	0.052043814
123	0x3e67a74b	0.22622411
124	0x3d9991d6	0.07498519
125	0xbca388a0	-0.019962609
126	0xbd97750f	-0.07395374
127	0xbe2dc6fd	-0.1697044
128	0xbe323b12	-0.17405346
129	0xbde618f0	-0.11235225
130	0xbe167583	-0.14693265
131	0xbd6b4e36	-0.057447635
132	0xbe282cd0	-0.16423345
133	0x3e262c18	0.16227758
134	0xbe1b949c	-0.15193409
135	0xbe26ffee	-0.16308567
136	0xbe06a8f0	-0.13150382
137	0xbe47383d	-0.19455047
138	0xbdbfb8ba	-0.09361406
139	0xbde7ef47	-0.113249354
140	0x3e31612f	0.17322229
141	0x3d6ee81d	0.05832683
142	0xbc7ce34a	-0.015435049
143	0x3e109d53	0.14122514
144	0x3d9beb02	0.076131836
145	0xbe0864df	-0.1331973
146	0x3e09f340	0.13471699
147	0x3deefe68	0.11669618
148	0xbe197adf	-0.14988278
149	0xbe492999	-0.19644774
150	0x3d64e324	0.05588068
151	0xbe50b2fe	-0.2038078
152	0xbe6f0100	-0.23340225
153	0xbe066a62	-0.1312652
154	0xbe3b84b3	-0.1831234
155	0x3dd1ac0f	0.10237896
156	0xbdd8b5fe	-0.10581587
157	0x3db39616	0.08768861
158	0xbe86fd4b	-0.26365122
159	0xbe507f9f	-0.20361184
160	0xbe2e952a	-0.17049089
161	0xbda7da68	-0.081959546
162	0xbe6c4b22	-0.23075536
163	0xbda8b219	-0.082370944
164	0x3e3c6ab5	0.1840008
165	0x3d2ff865	0.042961497
166	0x3e0b158e	0.13582441
167	0xbdaca0d7	-0.08429115
168	0x3db204fb	0.08692356
169	0x3daac0ec	0.08337578
170	0x3df3bbdb	0.11901065
171	0x3e10046e	0.1406419
172	0x3e4d9122	0.20074895
173	0x3e5d1c94	0.21592933
174	0x3e9e3afd	0.3090438
175	0xbe4998a6	-0.19687137
176	0xbe4e59b4	-0.20151407
177	0x3c0dc4bc	0.008652862
178	0x3df95bf8	0.12175745
179	0x3dc270ed	0.09494195
180	0x3d820ebf	0.06350469
181	0x3e0b1af5	0.13584502
182	0x3eca7a9d	0.39546672
183	0x3e205e2c	0.15660924
184	0x3e032815	0.12808259
185	0x3e318603	0.17336278
186	0x3e9dd46f	0.30826136
187	0x3f105fc7	0.56396145
188	0x3f0a95c5	0.5413478
189	0x3ea27988	0.31733346
190	0xbd40306b	-0.046921175
191	0x3e8ce593	0.275189
192	0x3e577cf2	0.21043757
193	0x3e349e5f	0.17638539
194	0x3d3406c0	0.04395175
195	0xbdfcf788	-0.123519
196	0x3e098e4c	0.13433188
197	0x3e9c2a6f	0.30501124
198	0x3e0db53e	0.1383867
199	0x3d92df19	0.07171459
200	0xbe09ef8a	-0.13470283
201	0xbe6629b6	-0.22476849
202	0xbe19c160	-0.15015173
203	0xbe747a54	-0.2387479
204	0xbe56a591	-0.20961596
205	0x3e839485	0.2569925
206	0xbcfab8f0	-0.030605763
207	0x3e38c435	0.18043597
208	0x3e091646	0.13387403
209	0x3da4cead	0.08047233
210	0x3e3feac8	0.18741906
211	0x3e4c05d3	0.19924097
212	0x3e889ec7	0.26683637
213	0x3d3e7506	0.04649832
214	0x3ea8c35f	0.32961556
215	0x3e15d653	0.1463254
216	0xbd3ea407	-0.046543147
217	0x3d8ede3b	0.06975981
218	0x3e498b1e	0.19681975
219	0xbd0ca8b6	-0.034340583
220	0x3cb1f6f2	0.021724198
221	0xbe87b298	-0.26503444
222	0x3ca700d3	0.020386135
223	0xbe492d7e	-0.1964626
224	0xbd96a155	-0.073549904
225	0xbe2a904b	-0.16656606
226	0x3e0ed95c	0.13950104
227	0xbe29fed8	-0.16601121
228	0xbe1de25f	-0.15418385
229	0xbd4a31ae	-0.049363784
230	0x3e447085	0.19183548
231	0x3e7ff2ff	0.2499504
232	0x3e86fd46	0.26365107
233	0x3e3d3ec7	0.18480979
234	0xbdb1693c	-0.0866265
235	0x3d3fc908	0.046822578
236	0x3e3207f5	0.17385848
237	0x3e99a858	0.3001125
238	0x3eafb65d	0.3431882
239	0x3ea876d6	0.32903165
240	0x3e456e45	0.19280346
241	0x3e39c5c1	0.18141843
242	0x3e3be15e	0.1834769
243	0x3eb3bd63	0.35105428
244	0xbd6e124c	-0.058122918
245	0xbe3e9106	-0.1861001
246	0xbdc0d68a	-0.0941592
247	0x3dd8cb1d	0.10585616
248	0x3e7755b3	0.24153785
249	0x3e485574	0.19563848

conv1.bias f4 [10]
0	0x3d4340a3	0.047669064
1	0x3e76dc1e	0.24107406
2	0x3dfce52a	0.12348397
3	0xb76c4783	-1.4083346e-05
4	0x3d0a159c	0.033712015
5	0xbe1cad6a	-0.15300527
6	0x3ea6aa61	0.32551864
7	0x3dd8b521	0.105814226
8	0xbddb8e01	-0.107204445
9	0x3c1d3852	0.009595947

conv2.weight f4 [20, 10, 5, 5]
0	0x3d8ee0f9	0.06976504
1	0x3d5e4d04	0.054272667
2	0xbcf48ee6	-0.029853296
3	0xbd539b0e	-0.051661544
4	0xbcfa2741	-0.030536296
5	0x3d03d50c	0.0321856
6	0x3cee3511	0.029078038
7	0xbc00f27d	-0.007870314
8	0xbd8f0813	-0.06983962
9	0xbc08628b	-0.008324276
10	0x3d63f5cb	0.05565433
11	0xbc5fd56e	-0.013661725
12	0xbd89d38e	-0.06729804
13	0xbdc8324e	-0.0977522
14	0xbd1c2205	-0.03811838
15	0xbbd6445f	-0.006538912
16	0xbdc6ad31	-0.097010024
17	0xbdc335e2	-0.09531762
18	0xbd37b044	-0.044845834
19	0x3cca034a	0.024659771
20	0xbd8580ab	-0.06518682
21	0xbda02562	-0.0781963
22	0xbd1acaf1	-0.037791196
23	0xbc8776fb	-0.016536226
24	0xbc62a4eb	-0.013833265
25	0x3d4a0e35	0.049329955
26	0x3b6567ac	0.003500442
27	0x3d00da83	0.03145839
28	0x3c4a617f	0.012352346
29	0x3d935dd8	0.07195634
30	0x3d0eeab6	0.034891807
31	0xbd1b326d	-0.037889887
32	0x3ca562a4	0.020188637
33	0x3d973d6c	0.07384762
34	0xbaa00d37	-0.001221097
35	0xbd41a1f5	-0.047273595
36	0x3d323269	0.043505106
37	0x3cbea09c	0.023269944
38	0x3d433736	0.047660075
39	0x3c23ccb9	0.00999754
40	0xbd28cddc	-0.041211948
41	0x394c4a9e	0.00019482753
42	0x3c5686b6	0.013093641
43	0x3ce7be23	0.028288906
44	0x3c019cc2	0.007910909
45	0xbca71cde	-0.020399507
46	0xbd56722b	-0.052354973
47	0x3cd5a3ff	0.026079176
48	0x3d21f90a	0.039544143
49	0xbc88714f	-0.016655592
50	0x3e208c0f	0.15678428
51	0x3e6d4445	0.23170574
52	0x3e15d950	0.1463368
53	0x3c8011bd	0.015633458
54	0x3c7219fa	0.014776701
55	0x3e4ceb76	0.20011696
56	0x3e2c4c64	0.16826016
57	0x3da61f74	0.08111468
58	0x3cb43982	0.022000078
59	0xbdbf088c	-0.09327802
60	0x3e0e82e0	0.13917112
61	0x3dac981c	0.0842745
62	0xbc54a072	-0.012977706
63	0xbdb283ba	-0.08716531
64	0xbd9ba138	-0.075991094
65	0x3e5d8af9	0.21635045
66	0x3d80186f	0.0625466
67	0xbdbd9081	-0.092560776
68	0xbe331c91	-0.17491366
69	0xbd6c734a	-0.057727136
70	0x3e34bd01	0.17650224
71	0xbcdfe874	-0.027332522
72	0xbd18e533	-0.037327956
73	0xbe2e6b41	-0.17033102
74	0xbe209dbe	-0.15685174
75	0xbb99634b	-0.004681026
76	0x3d042ac9	0.032267366
77	0xbd6b0840	-0.057380915
78	0xbcd14218	-0.025544211
79	0x3c94ce9d	0.018164927
80	0x3d7d4f15	0.061842997
81	0x3d0d6334	0.034518436
82	0xbd73b04f	-0.059494313
83	0x3d544e4a	0.051832475
84	0xbd47c6f5	-0.048773725
85	0x3c3023b0	0.010750696
86	0xbb1a88d7	-0.0023580098
87	0xbd60bb24	-0.05486597
88	0xbd303ade	-0.04302489
89	0xbd802110	-0.06256306
90	0x3d64edb7	0.055890765
91	0xbac113c9	-0.0014730628
92	0xbd0bf57a	-0.03416965
93	0xbb9b9a8a	-0.004748647
94	0xbce879ab	-0.028378328
95	0xbd3549ec	-0.04425995
96	0x3d6d8759	0.057990406
97	0xbd7e6a4b	-0.062113088
98	0x3d6b935d	0.057513583
99	0xbc932288	-0.017960802
100	0xbd11a848	-0.035560876
101	0xb9dec11d	-0.0004248702
102	0xbd8cfeb0	-0.06884515
103	0xbc1e8eb1	-0.009677575
104	0xba4a3055	-0.00077128905
105	0xbd10b68b	-0.035330337
106	0xb9ffbbec	-0.00048777403
107	0xbb35afc5	-0.0027723175
108	0x3d234b9e	0.039867036
109	0xbcca1ca0	-0.024671853
110	0x3c88da1f	0.01670557
111	0xbd8e11ff	-0.06937026
112	0xbd91c1c9	-0.0711704
113	0xbcbac9d1	-0.022801312
114	0xbd4d770e	-0.050162368
115	0xbd63fe28	-0.055662304
116	0xbd304b9b	-0.043040853
117	0xbd67b5f6	-0.056570016
118	0xbd402a78	-0.0469155
119	0xbd2d237b	-0.042270165
120	0xbd7d6576	-0.06186434
121	0xbd820e6c	-0.06350407
122	0xbd1567c6	-0.03647592
123	0x3d5e2b5e	0.054240577
124	0x3d30601b	0.043060403
125	0xbd4ecd31	-0.050488655
126	0xbd2de912	-0.0424586
127	0xbd7fbb9b	-0.062434774
128	0x3c4800a5	0.012207185
129	0xbcc137b4	-0.023586132
130	0x3d007f57	0.03137144
131	0xbd16dbcd	-0.036830712
132	0x3bf5acee	0.0074974215
133	0x3d0145ea	0.031560816
134	0xbd5514d2	-0.05202181
135	0xbc5e7e1f	-0.013579874
136	0x3cb3a5c8	0.021929637
137	0xbca63eff	-0.02029371
138	0xbd3a3c84	-0.04546787
139	0xbd3872ff	-0.045031544
140	0xbd3150f7	-0.043290105
141	0xbcbd1c8b	-0.0230849
142	0xbd81c0ae	-0.06335579
143	0x3a4b7902	0.0007761867
144	0xbd34f0e3	-0.04417504
145	0xbcfdde9e	-0.030989941
146	0x3d7ba931	0.06144065
147	0x3d7645b8	0.060125083
148	0x3d3fc7e7	0.0468215
149	0xbc41cb15	-0.011828204
150	0x3d277d87	0.040891197
151	0xbb7f57b5	-0.003896219
152	0x3c8df471	0.017328473
153	0xbd4f6934	-0.05063744
154	0x3d327942	0.04357267
155	0xbd97bbd8	-0.07408875
156	0xbd0bb149	-0.03410462
157	0xbc30f7be	-0.010801254
158	0x3c90405e	0.017608818
159	0x3bb53e9e	0.005531146
160	0x3c18ad2f	0.009318634
161	0x3d26e302	0.040743835
162	0x3ceeaf5e	0.029136356
163	0x3b471a41	0.0030380639
164	0x3d0208e5	0.031746764
165	0xbd48c370	-0.04901451
166	0x3d8cb11a	0.06869717
167	0x3b2ae25e	0.0026074867
168	0x3dd9fa98	0.106435
169	0x3dabbded	0.08385835
170	0xbca64461	-0.020296277
171	0xbd176789	-0.036963973
172	0xbc2a3ab6	-0.010389974
173	0x3ceaff57	0.028686209
174	0x3d99ed1c	0.07515928
175	0x3e3c81fd	0.18408962
176	0x3d44adb9	0.048017237
177	0xbb507ba6	-0.0031811981
178	0xbd934971	-0.07191742
179	0xbde052e2	-0.10953309
180	0x3e0b5863	0.13607936
181	0x3bf10edf	0.007356509
182	0xbcb69818	-0.02228932
183	0xbd8259b3	-0.06364765
184	0xbcde01bf	-0.027100442
185	0x3e272df3	0.16326122
186	0x3c913b00	0.017728329
187	0xbde49411	-0.11161054
188	0xbda21b5b	-0.07915374
189	0xbcc99bf5	-0.024610499
190	0x3d0e4a73	0.03473897
191	0x3a01ee1f	0.0004956442
192	0xbdbb7fdf	-0.09155249
193	0xbe03a3b7	-0.12855421
194	0xbd48279d	-0.048865903
195	0x3dbc30ae	0.091889724
196	0xbcc28db9	-0.02374922
197	0xbe0c36be	-0.13692757
198	0xbde65a3b	-0.11247679
199	0x3c5748df	0.013139932
200	0xbd67fc2f	-0.056636985
201	0xbd56d0bd	-0.052445162
202	0x3b1ed140	0.002423361
203	0xbc94148a	-0.0180762
204	0xbcbda852	-0.02315155
205	0xbca83731	-0.02053413
206	0xbc9236aa	-0.017848331
207	0xbd8de102	-0.069276825
208	0x3c53e7a1	0.012933643
209	0xbd1d9838	-0.038475245
210	0xbd572a0e	-0.05253034
211	0x3cbf4d89	0.023352401
212	0xbd97651b	-0.07392331
213	0x3b71ce4d	0.0036896646
214	0xbd94d891	-0.07267869
215	0xbd0a54b3	-0.03377218
216	0xbcd98d4e	-0.026556637
217	0x3b28c9c9	0.002575504
218	0xbd0f1e06	-0.034940742
219	0xbd5916a4	-0.053000107
220	0xbcfc6458	-0.030809566
221	0xbb8d75b3	-0.0043170094
222	0xbc7d0625	-0.0154433595
223	0xbd778ca3	-0.060436856
224	0x3ce67abc	0.028134696
225	0x3ddd7f0b	0.10815247
226	0xbbcec0e7	-0.006309617
227	0xbd7e9913	-0.0621577
228	0xbc216112	-0.0098498035
229	0xbcce2fa2	-0.025169197
230	0x3d9a733e	0.07541512
231	0x3bd9ace5	0.006642925
232	0xbcc5b845	-0.024135718
233	0xbd89c312	-0.0672666
234	0xbd12bc44	-0.035824075
235	0xbc0aede9	-0.008479574
236	0xbcb095a3	-0.021555727
237	0x3ca567dc	0.020191126
238	0xbda2eed4	-0.07955709
239	0xbda6a8d8	-0.08137673
240	0x3ce66ec7	0.028128995
241	0xbd65e515	-0.056126673
242	0xbda17f91	-0.078856595
243	0xbba452e4	-0.005014764
244	0xbc1b3f47	-0.009475536
245	0xbd41e29e	-0.04733526
246	0xbd96d341	-0.07364512
247	0xbd837236	-0.064182684
248	0x3b8b6ae2	0.004254685
249	0xbd0c1c46	-0.03420665
250	0xb97f4138	-0.00024342991
251	0x3d1f8f9a	0.03895531
252	0x3c958705	0.018252859
253	0xbd44c5d4	-0.048040226
254	0x3d56fa2f	0.052484687
255	0xbd290873	-0.041267823

conv2.bias f4 [20]
0	0x3e0b04f5	0.1357611
1	0xbd47e51a	-0.048802473
2	0x3d5e9e86	0.0543504
3	0x3c332f47	0.010936565
4	0x3dfae1c1	0.122500904
5	0x3d733fcb	0.05938701
6	0xbd4633bb	-0.048389178
7	0xbd204f20	-0.03913796
8	0xbaedc51f	-0.0018140412
9	0x3d7b6da4	0.06138386
10	0x3d3bb3d9	0.045825813
11	0x3c25842f	0.010102316
12	0xbcd23772	-0.025661204
13	0x3d816b96	0.063193485
14	0x3ba9636d	0.005169323
15	0x3c20bbd5	0.009810408
16	0xbc3d7da0	-0.011565596
17	0x3d8372fb	0.06418415
18	0xbd63954e	-0.05556231
19	0x3c644cfc	0.01393437

fc1.weight f4 [50, 2000]
0	0xbc6c8e93	-0.014438289
1	0x3cb455b4	0.022013523
2	0x3c2b4973	0.010454523
3	0x3bbcd7fe	0.005763053
4	0x3a3e0581	0.0007248745
5	0xbba744f2	-0.0051046545
6	0xbc8cd884	-0.017193086
7	0xbca08dfc	-0.019598953
8	0x3b82b9f8	0.0039894544
9	0x3c17eca1	0.009272725
10	0x3c9ca904	0.019123562
11	0x3c1701e7	0.009216762
12	0x391ca572	0.00014938953
13	0xbb881ff5	-0.0041542
14	0x3c866800	0.016407013
15	0xbca66d24	-0.020315714
16	0xba89eeba	-0.0010523417
17	0xbc2e3381	-0.010632397
18	0x3ba30af3	0.0049756705
19	0x3c88f53b	0.016718497
20	0xbc7e43dc	-0.015519109
21	0xbb5ba47d	-0.003351479
22	0x3c826b14	0.0159202
23	0xbc109d62	-0.0088265855
24	0x3c5ed56e	0.01360069
25	0xbc82ad2c	-0.015951715
26	0x3ca6c098	0.020355508
27	0x3c3ce2eb	0.011528711
28	0xbc24fa70	-0.010069475
29	0x3c2fbc8b	0.0107261045
30	0x3c80e1d1	0.015732678
31	0x3cb85117	0.022499604
32	0x3c44197a	0.011968965
33	0xbc9cdc09	-0.01914789
34	0xbca48da7	-0.020087076
35	0xbc177232	-0.009243535
36	0x3c0140eb	0.007889013
37	0xbc89fe1c	-0.016844802
38	0x3cad354f	0.021143584
39	0xbc26da93	-0.010183948
40	0xbc9779dd	-0.018490726
41	0x3bc6a70c	0.006062394
42	0x3bd81023	0.0065937205
43	0xbcb3d074	-0.021949984
44	0xbca22daf	-0.019797174
45	0x3c2d450e	0.010575546
46	0xbb90cf17	-0.0044192183
47	0xbc287087	-0.010280735
48	0x3c264cca	0.010150144
49	0xbc09d977	-0.008413664
50	0xbc2508c0	-0.010072887
51	0x3c8edbb4	0.017438747
52	0x3c29dad7	0.010367117
53	0x3c1eb76a	0.009687284
54	0xbc8e7d12	-0.017393623
55	0x3ba1b1cc	0.004934525
56	0x3bb65b18	0.0055650584
57	0xbbed4f7c	-0.0072421413
58	0x3c643b6c	0.013930183
59	0x3c0f8f43	0.008762184
60	0xbc952c05	-0.018209467
61	0xbc9482a7	-0.018128706
62	0xbc9ead7a	-0.01936983
63	0x3b272795	0.002550577
64	0xbc199044	-0.0093727745
65	0x3c9dfa21	0.01928431
66	0xbbe05ebf	-0.006847232
67	0x3ca4ee43	0.020133143
68	0xbca165f4	-0.019701935
69	0xbc9598a8	-0.018261269
70	0xbbd72f40	-0.006566912
71	0xbc8c98f4	-0.017162777
72	0xba88fd2a	-0.0010451425
73	0x3c718ed5	0.0147435265
74	0xbbd34141	-0.006446988
75	0xbc70cbad	-0.014696998
76	0xbbaa19b4	-0.0051910523
77	0xbc79ed23	-0.015254292
78	0x3c2cc53d	0.010545072
79	0xbc842190	-0.016129285
80	0x3c89a7be	0.016803619
81	0x3c23c7a3	0.009996328
82	0xbbe8bf19	-0.0071028587
83	0x3c8c522f	0.017129032
84	0x3ca208ad	0.019779528
85	0xbc1354d3	-0.008992392
86	0xbc084dab	-0.008319299
87	0xbcaef502	-0.021357063
88	0x3af7b869	0.0018899563
89	0xba713f91	-0.00092028925
90	0x3c746fbd	0.014919219
91	0xbc7e49f7	-0.015520564
92	0xbc979b04	-0.018506534
93	0x3c49107b	0.012271996
94	0x3c7b5063	0.01533899
95	0x3bd5d267	0.006525326
96	0x3c5e9c73	0.013587105
97	0x3c0d2330	0.008614346
98	0xbc9910b3	-0.01868472
99	0x3cafcdb4	0.021460392
100	0xbca786db	-0.020450046
101	0xbca8e4bc	-0.020616882
102	0xbc179795	-0.009252449
103	0x3c99d34e	0.018777516
104	0x3a77cd01	0.000945285
105	0x3ba498cb	0.005023097
106	0x3c98e128	0.01866205
107	0x3cb7924c	0.022408627
108	0xba06a146	-0.0005135726
109	0x3ca2865f	0.019839464
110	0xbc1d8985	-0.009615307
111	0xbba7c2cc	-0.005119657
112	0x3c952c35	0.018209556
113	0xbb0b2a1a	-0.0021234811
114	0xbaeaacb3	-0.0017904252
115	0x3b97c242	0.0046313116
116	0x3ca8ae2e	0.020590868
117	0x3c8bc07b	0.017059555
118	0xbc07a9c3	-0.00828022
119	0x3bf24a69	0.0073941243
120	0x3ca68eb4	0.020331718
121	0xbc5dcf0f	-0.013538136
122	0x3ba774b1	0.0051103462
123	0xbc3c61ef	-0.011497959
124	0xbc9b2549	-0.018938677
125	0xbbb31624	-0.005465286
126	0x3b50b5e7	0.0031846703
127	0xbc863010	-0.01638034
128	0x3b035509	0.0020039699
129	0x3c9a0b2f	0.01880416
130	0xbc3abd7e	-0.0113977175
131	0x3c87f778	0.016597494
132	0xbc5924a1	-0.013253362
133	0xbc9d62f5	-0.019212225
134	0xbc9d15b3	-0.019175386
135	0x3c540e16	0.0129428115
136	0x3c145013	0.009052294
137	0xba8b2ba1	-0.0010617861
138	0xbc83d2dc	-0.016091757
139	0xbc13ca84	-0.009020451
140	0xbc7944f2	-0.015214192
141	0xbbbc6637	-0.0057494896
142	0xbc097bb6	-0.008391311
143	0x3bd5a812	0.0065202797
144	0xbc93f56b	-0.01806136
145	0xbc92900b	-0.01789095
146	0xbca69cf3	-0.020338511
147	0xbc13a1a2	-0.009010704
148	0xbc81b5a2	-0.01583368
149	0x3c864ec5	0.016394982
150	0x3c8fc2c5	0.017548928
151	0xbc901043	-0.01758588
152	0xbaeceab6	-0.001807532
153	0x3c7c5c4d	0.015402866
154	0x3a5d3084	0.00084377103
155	0x3c82e16e	0.015976634
156	0xbc5a294f	-0.013315513
157	0x3c67d9f2	0.014151083
158	0x3c92c47b	0.017915955
159	0xbc3f8600	-0.011689663
160	0xbc083cc1	-0.008315266
161	0xbc29bf91	-0.010360614
162	0x3cadee29	0.021231728
163	0x3bc87d8f	0.0061184834
164	0x3c363625	0.0111213075
165	0xbbe3fb57	-0.0069574523
166	0xbba4b6fe	-0.005026697
167	0xbc2b1752	-0.010442572
168	0xbc1a0c81	-0.009402395
169	0xbc39abf6	-0.011332503
170	0x3a4e6f38	0.0007874849
171	0x3c2f8ffe	0.010715483
172	0x3c2b6319	0.010460638
173	0xbc272ea6	-0.010203993
174	0xbb0d6018	-0.002157217
175	0x3c9dabb4	0.019246913
176	0xbb57c3ec	-0.0032923175
177	0x3ca60be3	0.02026934
178	0xbc453c35	-0.01203828
179	0xbc67c2a1	-0.014145524
180	0x3c8aa6ac	0.016925178
181	0xbc7e9416	-0.015538236
182	0xbcacdaca	-0.02110042
183	0x3ba01b7c	0.004886089
184	0x3b58d8ce	0.003308821
185	0xbbc3ff50	-0.0059813634
186	0x3c8a4e07	0.01688291
187	0x3bdca5eb	0.006733646
188	0xbbc64943	-0.006051214
189	0xbc473942	-0.012159647
190	0xbc5b88a6	-0.013399279
191	0x3c8d5f2b	0.017257294
192	0x3c9fc115	0.019501248
193	0xbc08d679	-0.0083519155
194	0x3c091f97	0.008369348
195	0xbc482e78	-0.01221811
196	0xbcab9ebf	-0.02094972
197	0x3c5e2e0d	0.013560784
198	0xbb747b6b	-0.0037305008
199	0x39e0740e	0.00042811077
200	0x3c9323e2	0.017961446
201	0x3ca4aa7c	0.020100825
202	0x3a906769	0.0011017147
203	0xbc652c73	-0.013987648
204	0xbcaa7b10	-0.020810634
205	0x3bd58a70	0.006516747
206	0xbae92d43	-0.0017789978
207	0x3bd3e4f0	0.0064665005
208	0xbcab61b8	-0.02092062
209	0xbc8e0453	-0.017336046
210	0x3b9fadef	0.0048730294
211	0xbc6b498c	-0.014360797
212	0xbbd123e8	-0.006382454
213	0xbb57831a	-0.003288454
214	0x3b60e295	0.003431474
215	0x3b3026fd	0.0026878708
216	0xbc985018	-0.01859288
217	0xbb7bcbad	-0.003842096
218	0x3c3bfe00	0.011474133
219	0xbc581b7f	-0.013190149
220	0x3c8844fe	0.01663446
221	0x3c2af062	0.010433288
222	0x3c44a98a	0.012003312
223	0xbadc57ec	-0.0016810871
224	0x3bff5161	0.0077916835
225	0xbc59254a	-0.013253519
226	0xbbd481aa	-0.0064851837
227	0xbc1fb4c5	-0.009747689
228	0x3c8213bf	0.015878556
229	0xbc84c937	-0.016209228
230	0xbba9e2b9	-0.005184498
231	0xbbcc4ff7	-0.0062351185
232	0xbc2ef900	-0.010679483
233	0xbc3498ad	-0.011022729
234	0x3cabd198	0.020973966
235	0x3c3a3901	0.01136613
236	0x3b6327db	0.0034661207
237	0x3b3d871e	0.0028919647
238	0x3b82c3dd	0.003990634
239	0xbc9d4f5b	-0.019202879
240	0x3c48b685	0.012250547
241	0x3b593011	0.0033140222
242	0x3bd48c57	0.0064864564
243	0x3b8d4c19	0.00431205
244	0xbc03fa4d	-0.008055282
245	0x3c50821b	0.012726332
246	0x3ca20a13	0.019780194
247	0x3c9a5258	0.018838093
248	0x39fef1a9	0.00048626706
249	0x3ca40372	0.020021174
250	0xbcb6b506	-0.022303116
251	0xbc358482	-0.011078956
252	0x3ad3f725	0.0016171677
253	0x3c3119a5	0.010809337
254	0xbc1af741	-0.009458364
255	0xbc8ea51f	-0.01741272

fc1.bias f4 [50]
0	0xbc4d1da7	-0.012519277
1	0xbc1ae17c	-0.009453174
2	0xbc07c0c0	-0.008285701
3	0x3c643013	0.013927477
4	0xbc1683c1	-0.009186686
5	0x3d47a9d5	0.04874595
6	0x3cce8239	0.02520858
7	0xbc86a17e	-0.016434427
8	0x3cda9c86	0.026685964
9	0x3c992ecb	0.01869907
10	0xbc88a8d3	-0.016682064
11	0x3c0b9822	0.008520158
12	0xbbfdf623	-0.007750289
13	0xbc5544c5	-0.013016884
14	0xbc061612	-0.008183973
15	0xbcf0e557	-0.029406233
16	0x3cdf9c84	0.027296312
17	0x3c000143	0.007812801
18	0x3cdf9e59	0.027297186
19	0xbc70e782	-0.014703633
20	0xbcb2436a	-0.021760661
21	0x3c407d3d	0.011748609
22	0x3bd1ad6a	0.0063988464
23	0xbc31c5e1	-0.010850401
24	0x3ca0aa22	0.019612376
25	0x3c97d115	0.018532315
26	0x3cbd577a	0.023113001
27	0xbb054740	-0.0020336658
28	0xbafe6d86	-0.0019411303
29	0x3c97c48e	0.018526342
30	0x3c497f2b	0.012298386
31	0x3c3fdb6f	0.011710032
32	0xbca91e3d	-0.020644302
33	0x3ca1b515	0.019739667
34	0x3c8ba063	0.017044252
35	0x3ba1b4f0	0.0049348995
36	0x3c80604f	0.015670924
37	0x3cc898eb	0.02448698
38	0x3b2439d5	0.0025058885
39	0x3c71634b	0.014733146
40	0x3ba5121a	0.0050375583
41	0x3c8a0d33	0.016851997
42	0x3d331f2a	0.043730892
43	0x3c9e1b6e	0.019300189
44	0x3d064b34	0.032786563
45	0x3d1bb2f9	0.03801248
46	0xbcbddaca	-0.023175616
47	0x3d3230f3	0.043503713
48	0xbb3ce5e6	-0.0028823554
49	0x3d3fcbf7	0.046825375

fc2.weight f4 [10, 50]
0	0xbd279388	-0.04091218
1	0x3e6a13a8	0.22859061
2	0x3e1df6be	0.15426156
3	0xbd43ced7	-0.04780468
4	0x3e36c4ff	0.17848586
5	0x3e399dbe	0.1812658
6	0xbe76ad24	-0.24089485
7	0x3daae442	0.08344318
8	0xbe844be5	-0.25839153
9	0x3e01c91a	0.1267437
10	0x3d398bf3	0.04529948
11	0x3dd13b8b	0.10216435
12	0xbdf17af5	-0.1179103
13	0xbd3f0730	-0.046637714
14	0xbde69b8c	-0.11260137
15	0x3e18d05d	0.14923234
16	0x3d91bd4c	0.07116184
17	0xbd8888a9	-0.06666691
18	0xbe1252ea	-0.14289442
19	0xbc7f3eed	-0.0155789675
20	0x3d19d00e	0.037551932
21	0x3e63927d	0.2222385
22	0x3d6afaef	0.057368215
23	0xbe247fac	-0.16064328
24	0xbd1bba8a	-0.038019694
25	0xbc3a6ebd	-0.011378941
26	0x3e3fe9ff	0.18741606
27	0x3d8c3234	0.06845513
28	0xbdbb6a20	-0.09151101
29	0x3ded16c8	0.11576611
30	0xbd8ff9f5	-0.070300974
31	0x3d263035	0.040573318
32	0x3c41743f	0.0118075
33	0xbe14de57	-0.14537941
34	0xbe53ed62	-0.20696023
35	0x3c0e5e78	0.008689515
36	0xbd6f7595	-0.058461744
37	0xbe4afcdc	-0.1982302
38	0xbd2e26fc	-0.042517647
39	0xbdd45426	-0.103676125
40	0x3e820201	0.25392154
41	0x3cd35676	0.025798064
42	0xbdd2d0e2	-0.102937475
43	0xbd5364d1	-0.051609818
44	0x3db77dc9	0.089595385
45	0x3d72b831	0.05925769
46	0xbe077845	-0.13229473
47	0xbd630ff8	-0.05543515
48	0xbe6ca6ff	-0.23110579
49	0x3e010819	0.12600745
50	0x3dd4a7e1	0.10383583
51	0xbdd4377b	-0.103621446
52	0x3d8f0fcb	0.06985434
53	0x3dd9f44f	0.10642301
54	0xbd9f0639	-0.07764859
55	0x3e32afb2	0.17449835
56	0x3dae0716	0.08497445
57	0xbe08e13c	-0.1336717
58	0xbd956ec3	-0.07296517
59	0xbe33e0ce	-0.17566225
60	0x3ccb5c11	0.024824174
61	0xbd94565e	-0.07243036
62	0xbd9d30b3	-0.07675304
63	0xbdc3a329	-0.09552605
64	0xbd169b29	-0.036769066
65	0xbe1d7701	-0.15377428
66	0xbdd41def	-0.10357272
67	0xbde20014	-0.11035171
68	0xbe258b82	-0.161665
69	0x3ee08c7b	0.43857178
70	0xbdafba99	-0.085805126
71	0x3bf08f1d	0.007341279
72	0xbe247100	-0.16058731
73	0xbca77887	-0.020443214
74	0x3da944d1	0.08265079
75	0x3e12addf	0.14324139
76	0x3dc6eae4	0.097127706
77	0xbe6a06ed	-0.22854204
78	0x3e029e19	0.12755622
79	0x3dcf5dbb	0.101252995
80	0x3d84ef9c	0.06491014
81	0x3c81ef67	0.015861226
82	0x3d22ac0b	0.039714854
83	0x3cd29db5	0.025709966
84	0x3e635208	0.22199261
85	0xbe0e55a6	-0.1389986
86	0x3ddd40dc	0.108033866
87	0xbd8be6fb	-0.068311654
88	0xbe687aeb	-0.2270314
89	0xbea8fbd2	-0.33004624
90	0xbcf3583a	-0.029705156
91	0x3d9d8107	0.07690626
92	0x3e77a2f7	0.2418326
93	0x3e114ae6	0.14188728
94	0x3dd7a1f5	0.10528938
95	0x3e0011dc	0.12506813
96	0xbd0dcd52	-0.034619637
97	0x3dabdf46	0.083921954
98	0x3d62f627	0.05541053
99	0x3e1472f2	0.14496973
100	0xbde063e1	-0.109565504
101	0xbe10f26b	-0.14154975
102	0xbe7a06f9	-0.24416722
103	0xbb2d42b0	-0.0026437454
104	0x3dbd8f34	0.092558295
105	0xbe9461c8	-0.2898085
106	0x3df31e37	0.118709974
107	0x3e0bf236	0.13666615
108	0xbe60b1ee	-0.21942875
109	0x3e449024	0.1919561
110	0x3d00ca46	0.031442903
111	0xbe0a44c5	-0.13502796
112	0x3cc4997f	0.023998974
113	0x3d9ebe76	0.07751171
114	0x3c4bd16e	0.012440069
115	0xbc8d69ee	-0.017262425
116	0x3baf6531	0.005352639
117	0xbd785f31	-0.060637657
118	0x3d39d312	0.045367308
119	0xbd37ab4a	-0.04484109
120	0xbe08f165	-0.13373335
121	0x3d9173c2	0.07102157
122	0xbd1fac68	-0.03898278
123	0x3e0db3ab	0.13838069
124	0x3e6d4035	0.23169024
125	0x3d710c25	0.058849473
126	0xbd0370fe	-0.03209018
127	0x3d7594a1	0.059956197
128	0xbda69032	-0.08132972
129	0x3dde8f85	0.10867218
130	0x3eadabc5	0.33920112
131	0xbd349969	-0.044091616
132	0x3e60ac32	0.21940687
133	0x3d6df2ac	0.058092758
134	0x3e30a7e5	0.17251547
135	0x3e863603	0.26213083
136	0xbdd0287d	-0.101639725
137	0xbeb07a83	-0.3446847
138	0xbc0e6c7e	-0.008692859
139	0x3d4a78f8	0.04943177
140	0x3e089475	0.13337882
141	0xbe95f70b	-0.2929004
142	0x3d9baaeb	0.076009594
143	0x3dccbde4	0.09997156
144	0xbdd268a7	-0.10273867
145	0xbc50c47c	-0.012742158
146	0xbcae41fd	-0.0212717
147	0xbe675d97	-0.22594295
148	0xbd9c2548	-0.07624298
149	0x3e4d669f	0.20058678
150	0xba6e9175	-0.0009100654
151	0x3d6c46fe	0.05768489
152	0xbe67cfed	-0.22637911
153	0xbd9283ba	-0.07154031
154	0x3d55a80b	0.05216221
155	0x3d058c7d	0.032604683
156	0xbe10df6e	-0.14147732
157	0xbda1bc67	-0.07897263
158	0x3e72f1ba	0.23725024
159	0xbd49ac1d	-0.049236406
160	0xbcde8021	-0.027160706
161	0xbdae0d1a	-0.08498593
162	0x3d9cf65f	0.07664179
163	0x3cfb3bfc	0.030668251
164	0x3e3640e5	0.17798193
165	0x3e1cef48	0.15325654
166	0xbd9ffa4e	-0.07811414
167	0xbd48a1ab	-0.048982304
168	0x3d8b3df2	0.067989245
169	0xbe177610	-0.14791131
170	0xbda17200	-0.07883072
171	0xbc049eb5	-0.008094479
172	0x3e80130f	0.2501454
173	0x3e5bfe7a	0.21483794
174	0xbd14f903	-0.03637029
175	0x3e828405	0.25491348
176	0x3dcd6917	0.1002981
177	0x3cda03d6	0.026613157
178	0xbc0b2ff5	-0.008495321
179	0x3da5d075	0.08096401
180	0x3d8d61da	0.06903429
181	0xbdf8f645	-0.12156347
182	0x3ca85e91	0.020552905
183	0xbe6665d6	-0.22499785
184	0x3e8b523d	0.2721118
185	0xbe55a6d6	-0.20864424
186	0xbdbcf64a	-0.092266634
187	0xbd76f462	-0.060291655
188	0xbea5ca92	-0.3238111
189	0x3dbc29d8	0.091876686
190	0xbe0d8a2a	-0.13822237
191	0xbc6d40ce	-0.014480783
192	0xbe9f72cb	-0.31142268
193	0x3e600075	0.21875174
194	0xbd3fa0fd	-0.04678439
195	0xbde7fd3a	-0.11327596
196	0xbde8f304	-0.113744766
197	0xbe0279ed	-0.12741823
198	0x3e8fd867	0.2809479
199	0xbe8e9fb3	-0.27856216
200	0xbd95861a	-0.073009685
201	0x3c33f48f	0.0109836
202	0x3d415dce	0.0472086
203	0x3da793b5	0.0818247
204	0xbe182b12	-0.1486018
205	0xbe50770d	-0.20357914
206	0x3e7ecf25	0.24883707
207	0x3af46437	0.0018645589
208	0x3e277a03	0.16355138
209	0x3be4904e	0.0069752103
210	0xbc9d5bfe	-0.019208904
211	0xbe09086e	-0.13382122
212	0x3dfc32ec	0.123144
213	0xbe11d2d7	-0.14240585
214	0xbec1e6a0	-0.37871265
215	0x3e398f64	0.18121105
216	0xbd9026b6	-0.070386335
217	0x3d8472be	0.06467198
218	0xbe4e3150	-0.20135999
219	0xbe4f2a68	-0.2023102
220	0x3d18046f	0.037113603
221	0x3d7c285f	0.06156194
222	0x3d545c85	0.051846046
223	0x3c864f0d	0.016395116
224	0xbe7fd694	-0.24984199
225	0x3c59f2e5	0.0133025395
226	0xbdc00f1c	-0.09377882
227	0xbe55d305	-0.20881279
228	0x3d6a8ce6	0.057263277
229	0xbdbdb9b3	-0.09263935
230	0x3e298a7b	0.16556732
231	0x3a298a24	0.0006467423
232	0xbe932b07	-0.28743765
233	0xbda7acbd	-0.08187244
234	0xbd7c3258	-0.06157145
235	0x3e747230	0.23871684
236	0x3ddc093c	0.10743949
237	0x3e896f6d	0.26842824
238	0x3dd99c3e	0.10625504
239	0xbe05edb9	-0.13078965
240	0x3cbec2cc	0.023286246
241	0x3e17f4ca	0.14839473
242	0x3e3e7141	0.1859789
243	0x3d78aa97	0.060709562
244	0x3d9e74f1	0.077371486
245	0xbc389750	-0.011266544
246	0x3c04c2bd	0.00810307
247	0x3e9b2957	0.30304977
248	0xbcce2b7a	-0.025167216
249	0x3e874484	0.2641946
250	0x3c994f1c	0.01871448
251	0xbdb8a274	-0.090153605
252	0xbd2f64e4	-0.042820826
253	0x3d8552db	0.06509944
254	0xbd06843b	-0.03284095
255	0x3e373b25	0.17893656

fc2.bias f4 [10]
0	0x3d6c8444	0.057743326
1	0x3dd0e49b	0.10199853
2	0xbe04f483	-0.12983899
3	0x3c5bf667	0.013425446
4	0xbdb158ac	-0.08659491
5	0xbd961487	-0.07328134
6	0x3d8e62a0	0.06952405
7	0x3d4af204	0.04954721
8	0xbc30681d	-0.01076701
9	0x3c818bf0	0.015813798
